…
i kontrol etmek için önemlidir.\n"]},{"cell_type":"code","execution_count":4,"id":"1343af03","metadata":{"execution":{"iopub.execute_input":"2025-09-26T10:15:24.514051Z","iopub.status.busy":"2025-09-26T10:15:24.513725Z","iopub.status.idle":"2025-09-26T10:15:24.799761Z","shell.execute_reply":"2025-09-26T10:15:24.798721Z"},"papermill":{"duration":0.299127,"end_time":"2025-09-26T10:15:24.801207","exception":false,"start_time":"2025-09-26T10:15:24.50208","status":"completed"},"tags":[]},"outputs":[{"name":"stdout","output_type":"stream","text":["CNNModel(\n","  (conv_block): Sequential(\n","    (0): Conv2d(3, 32, kernel_size=(3, 3), stride=(1, 1), padding=(1, 1))\n","    (1): BatchNorm2d(32, eps=1e-05, momentum=0.1, affine=True, track_running_stats=True)\n","    (2): ReLU()\n","    (3): MaxPool2d(kernel_size=2, stride=2, padding=0, dilation=1, ceil_mode=False)\n","    (4): Conv2d(32, 64, kernel_size=(3, 3), stride=(1, 1), padding=(1, 1))\n","    (5): BatchNorm2d(64, eps=1e-05, momentum=0.1, affine=True, track_running_stats=True)\n","    (6): ReLU()\n","    (7): MaxPool2d(kernel_size=2, stride=2, padding=0, dilation=1, ceil_mode=False)\n","    (8): Conv2d(64, 128, kernel_size=(3, 3), stride=(1, 1), padding=(1, 1))\n","    (9): BatchNorm2d(128, eps=1e-05, momentum=0.1, affine=True, track_running_stats=True)\n","    (10): ReLU()\n","    (11): MaxPool2d(kernel_size=2, stride=2, padding=0, dilation=1, ceil_mode=False)\n","    (12): Conv2d(128, 256, kernel_size=(3, 3), stride=(1, 1), padding=(1, 1))\n","    (13): BatchNorm2d(256, eps=1e-05, momentum=0.1, affine=True, track_running_stats=True)\n","    (14): ReLU()\n","    (15): MaxPool2d(kernel_size=2, stride=2, padding=0, dilation=1, ceil_mode=False)\n","    (16): Conv2d(256, 512, kernel_size=(3, 3), stride=(1, 1), padding=(1, 1))\n","    (17): BatchNorm2d(512, eps=1e-05, momentum=0.1, affine=True, track_running_stats=True)\n","    (18): ReLU()\n","    (19): AdaptiveAvgPool2d(output_size=(2, 2))\n","  )\n","  (fc_block): Sequential(\n","    (0): Flatten(start_dim=1, end_dim=-1)\n","    (1): Linear(in_features=2048, out_features=512, bias=True)\n","    (2): ReLU()\n","    (3): Dropout(p=0.5, inplace=False)\n","    (4): Linear(in_features=512, out_features=256, bias=True)\n","    (5): ReLU()\n","    (6): Dropout(p=0.5, inplace=False)\n","    (7): Linear(in_features=256, out_features=10, bias=True)\n","  )\n",")\n"]}],"source":["import torch\n","import torch.nn as nn\n","\n","class CNNModel(nn.Module):\n","    def __init__(self, num_classes, img_size=64, dropout_rate=0.5):\n","        super(CNNModel, self).__init__()\n","        \n","        self.conv_block = nn.Sequential(\n","            nn.Conv2d(3, 32, 3, padding=1),   # 64x64 → 32 filtre\n","
…
