…
terion = nn.CrossEntropyLoss()\noptimizer = optim.Adam(model.parameters(), lr=0.001, weight_decay=1e-4)\nscheduler = torch.optim.lr_scheduler.ReduceLROnPlateau(optimizer, mode='min', factor=0.5, patience=3)\n\n","metadata":{"trusted":true,"execution":{"iopub.status.busy":"2025-09-25T19:15:23.680388Z","iopub.execute_input":"2025-09-25T19:15:23.680989Z","iopub.status.idle":"2025-09-25T19:15:23.723376Z","shell.execute_reply.started":"2025-09-25T19:15:23.680964Z","shell.execute_reply":"2025-09-25T19:15:23.722741Z"}},"outputs":[{"name":"stdout","text":"CNNModel(\n  (conv_block): Sequential(\n    (0): Conv2d(3, 32, kernel_size=(3, 3), stride=(1, 1), padding=(1, 1))\n    (1): BatchNorm2d(32, eps=1e-05, momentum=0.1, affine=True, track_running_stats=True)\n    (2): ReLU()\n    (3): MaxPool2d(kernel_size=2, stride=2, padding=0, dilation=1, ceil_mode=False)\n    (4): Conv2d(32, 64, kernel_size=(3, 3), stride=(1, 1), padding=(1, 1))\n    (5): BatchNorm2d(64, eps=1e-05, momentum=0.1, affine=True, track_running_stats=True)\n    (6): ReLU()\n    (7): MaxPool2d(kernel_size=2, stride=2, padding=0, dilation=1, ceil_mode=False)\n    (8): Conv2d(64, 128, kernel_size=(3, 3), stride=(1, 1), padding=(1, 1))\n    (9): BatchNorm2d(128, eps=1e-05, momentum=0.1, affine=True, track_running_stats=True)\n    (10): ReLU()\n    (11): MaxPool2d(kernel_size=2, stride=2, padding=0, dilation=1, ceil_mode=False)\n    (12): Conv2d(128, 256, kernel_size=(3, 3), stride=(1, 1), padding=(1, 1))\n    (13): BatchNorm2d(256, eps=1e-05, momentum=0.1, affine=True, track_running_stats=True)\n    (14): ReLU()\n    (15): MaxPool2d(kernel_size=2, stride=2, padding=0, dilation=1, ceil_mode=False)\n    (16): Conv2d(256, 512, kernel_size=(3, 3), stride=(1, 1), padding=(1, 1))\n    (17): BatchNorm2d(512, eps=1e-05, momentum=0.1, affine=True, track_running_stats=True)\n    (18): ReLU()\n    (19): AdaptiveAvgPool2d(output_size=(2, 2))\n  )\n  (fc_block): Sequential(\n    (0): Flatten(start_dim=1, end_dim=-1)\n    (1): Linear(in_features=2048, out_features=512, bias=True)\n    (2): ReLU()\n    (3): Dropout(p=0.5, inplace=False)\n    (4): Linear(in_features=512, out_features=256, bias=True)\n    (5): ReLU()\n    (6): Dropout(p=0.5, inplace=False)\n    (7): Linear(in_features=256, out_features=10, bias=True)\n  )\n)\n","output_type":"stream"}],"execution_count":38},{"cell_type":"code","source":"import torch\nimport torch.nn as nn\nimport torch.optim as optim\nfrom torch.utils.data import DataLoader\nfrom torchvision import transforms\nimport matplotlib.pyplot as plt\n\n# --- Cihaz ---\ndevice = torch.device(\"cuda\" if torch.cuda.is_available() else \"cpu\"
…
